…
 gpu_id=[2, 3], in_dim=1, include_top=False, init_lr=3.0000000000000004e-05, json_path='/root/userfolder/ore/data/SAMdataset/train_val_test.json', min_lr=3e-06, modelName='dual_tower', num_classes=2, num_epochs=200, num_warmup=5, num_workers=4, pretrained=None, savePath='/root/userfolder/ore/ore_classification/work_dirs', seed=3407, warmup_strategy='cos')
2025-07-23 18:38:17,572 - root - INFO - Using 8 GPUs: [2, 3]
2025-07-23 18:38:17,572 - root - INFO - Model Summary:
2025-07-23 18:38:17,572 - root - INFO - DataParallel(
  (module): dual_tower(
    (model_low): MineralClassifier(
      (conv1): Conv2d(1, 32, kernel_size=(7, 7), stride=(2, 2), padding=(3, 3), bias=False)
      (bn1): BatchNorm2d(32, eps=1e-05, momentum=0.1, affine=True, track_running_stats=True)
      (relu): ReLU(inplace=True)
      (res_block1): ResidualBlock(
        (project): Sequential(
          (0): Conv2d(32, 64, kernel_size=(1, 1), stride=(1, 1), bias=False)
          (1): BatchNorm2d(64, eps=1e-05, momentum=0.1, affine=True, track_running_stats=True)
        )
        (conv1): Conv2d(32, 64, kernel_size=(3, 3), stride=(1, 1), padding=(1, 1))
        (bn1): BatchNorm2d(64, eps=1e-05, momentum=0.1, affine=True, track_running_stats=True)
        (conv2): Conv2d(64, 64, kernel_size=(5, 5), stride=(1, 1), padding=(2, 2))
        (bn2): BatchNorm2d(64, eps=1e-05, momentum=0.1, affine=True, track_running_stats=True)
        (relu): ReLU(inplace=True)
      )
      (res_block2): ResidualBlock(
        (project): Sequential(
          (0): Conv2d(64, 128, kernel_size=(1, 1), stride=(1, 1), bias=False)
          (1): BatchNorm2d(128, eps=1e-05, momentum=0.1, affine=True, track_running_stats=True)
        )
        (conv1): Conv2d(64, 128, kernel_size=(3, 3), stride=(1, 1), padding=(1, 1))
        (bn1): BatchNorm2d(128, eps=1e-05, momentum=0.1, affine=True, track_running_stats=True)
        (conv2): Conv2d(128, 128, kernel_size=(5, 5), stride=(1, 1), padding=(2, 2))
        (bn2): BatchNorm2d(128, eps=1e-05, momentum=0.1, affine=True, track_running_stats=True)
        (relu): ReLU(inplace=True)
      )
      (attention): MultiScaleAttention(
        (ca): ChannelAttention(
          (avg_pool): AdaptiveAvgPool2d(output_size=1)
          (max_pool): AdaptiveMaxPool2d(output_size=1)
          (fc1): Conv2d(128, 8, kernel_size=(1, 1), stride=(1, 1), bias=False)
          (relu1): ReLU()
          (fc2): Conv2d(8, 128, kernel_size=(1, 1), stride=(1, 1), bias=False)
          (sigmoid): Sigmoid()
        )
        (sa): SpatialAttention(
          (conv1): Conv2d(2, 1, kernel_size=(7, 7), stride=(1, 1), padding=(3, 3), bias=False)
          (sigmoid): Sigmoid()
        )
      )
      (avgpool): AdaptiveAvgPool2d(output_size=1)
      (fc): Linear(in_features=128, out_features=2, bias=True)
    )
    (model_high): MineralClassifier(
      (conv1): Conv2d(1, 32, kernel_size=(7, 7), stride=(2, 2), padding=(3, 3), bias=False)
      (bn1): BatchNorm2d(32, eps=1e-05, momentum=0.1, affine=True, track_running_stats=True)
      (relu): ReLU(inplace=True)
      (res_block1): ResidualBlock(
        (project): Sequential(
          (0): Conv2d(32, 64, kernel_size=(1, 1), stride=(1, 1), bias=False)
          (1): BatchNorm2d(64, eps=1e-05, momentum=0.1, affine=True, track_running_stats=True)
        )
        (conv1): Conv2d(32, 64, kernel_size=(3, 3), stride=(1, 1), padding=(1, 1))
        (bn1): BatchNorm2d(64, eps=1e-05, momentum=0.1, affine=True, track_running_stats=True)
        (conv2): Conv2d(64, 64, kernel_size=(5, 5), stride=(1, 1), padding=(2, 2))
        (bn2): BatchNorm2d(64, eps=1e-05, momentum=0.1, affine=True, track_running_stats=True)
        (relu): ReLU(inplace=True)
      )
      (res_block2): ResidualBlock(
        (project): Sequential(
          (0): Conv2d(64, 128, kernel_size=(1, 1), stride=(1, 1), bias=False)
          (1): BatchNorm2d(128, eps=1e-05, momentum=0.1, affine=True, track_running_stats=True)
        )
        (conv1): Conv2d(64, 128, kernel_size=(3, 3), stride=(1, 1), padding=(1, 1))
        (bn1): BatchNorm2d(128, eps=1e-05, momentum=0.1, affine=True, track_running_stats=True)
        (conv2): Conv2d(128, 128, kernel_size=(5, 5), stride=(1, 1), padding=(2, 2))
        (bn2): BatchNorm2d(128, eps=1e-05, momentum=0.1, affine=True, track_running_stats=True)
        (relu): ReLU(inplace=True)
      )
      (attention): MultiScaleAttention(
        (ca): ChannelAttention(
          (avg_pool): AdaptiveAvgPool2d(output_size=1)
          (max_pool): AdaptiveMaxPool2d(output_size=1)
          (fc1): Conv2d(128, 8, kernel_size=(1, 1), stride=(1, 1), bias=False)
          (relu1): ReLU()
          (fc2): Conv2d(8, 128, kernel_size=(1, 1), stride=(1, 1), bias=False)
          (sigmoid): Sigmoid()
        )
        (sa): SpatialAttention(
          (conv1): Conv2d(2, 1, kernel_size=(7, 7), stride=(1, 1), padding=(3, 3), bias=False)
          (sigmoid): Sigmoid()
        )
      )
      (avgpool): AdaptiveAvgPool2d(output_size=1)
      (fc): Linear(in_features=128, out_features=2, bias=True)
    )
    (classifier): ChebyKAN(
      (act_fun): ModuleList(
        (0): ChebyKANLayer()
        (1): ChebyKANLayer()
        (2): ChebyKANLayer()
        (3): ChebyKANLayer()
        (4): ChebyKANLayer()
        (5): ChebyKANLayer()
      )
    )
  )
)
2025-07-23 18:38:17,573 - root - INFO - ----------------------------------------------------------------------------------------------------
…
